…
          "base_uri": "https://localhost:8080/"
        },
        "outputId": "fa78e442-3175-4e89-ffe4-43ee979f0ab8"
      },
      "source": [
        "cnn.summary()"
      ],
      "execution_count": 10,
      "outputs": [
        {
          "output_type": "stream",
          "text": [
            "Model: \"sequential_1\"\n",
            "_________________________________________________________________\n",
            "Layer (type)                 Output Shape              Param #   \n",
            "=================================================================\n",
            "conv2d_1 (Conv2D)            (None, 498, 498, 32)      320       \n",
            "_________________________________________________________________\n",
            "batch_normalization (BatchNo (None, 498, 498, 32)      128       \n",
            "_________________________________________________________________\n",
            "max_pooling2d (MaxPooling2D) (None, 249, 249, 32)      0         \n",
            "_________________________________________________________________\n",
            "conv2d_2 (Conv2D)            (None, 247, 247, 32)      9248      \n",
            "_________________________________________________________________\n",
            "max_pooling2d_1 (MaxPooling2 (None, 123, 123, 32)      0         \n",
            "_________________________________________________________________\n",
            "conv2d_3 (Conv2D)            (None, 123, 123, 32)      1056      \n",
            "_________________________________________________________________\n",
            "max_pooling2d_2 (MaxPooling2 (None, 61, 61, 32)        0         \n",
            "_________________________________________________________________\n",
            "conv2d_4 (Conv2D)            (None, 59, 59, 64)        18496     \n",
            "_________________________________________________________________\n",
            "max_pooling2d_3 (MaxPooling2 (None, 29, 29, 64)        0         \n",
            "_________________________________________________________________\n",
            "conv2d_5 (Conv2D)            (None, 29, 29, 64)        4160      \n",
            "_________________________________________________________________\n",
            "max_pooling2d_4 (MaxPooling2 (None, 14, 14, 64)        0         \n",
            "_________________________________________________________________\n",
            "conv2d_6 (Conv2D)            (None, 12, 12, 128)       73856     \n",
            "_________________________________________________________________\n",
            "max_pooling2d_5 (MaxPooling2 (None, 6, 6, 128)         0         \n",
            "_________________________________________________________________\n",
            "flatten (Flatten)            (None, 4608)              0         \n",
            "_________________________________________________________________\n",
            "dense (Dense)                (None, 256)               1179904   \n",
            "_________________________________________________________________\n",
            "dropout (Dropout)            (None, 256)               0         \n",
            "_________________________________________________________________\n",
            "dense_1 (Dense)              (None, 128)               32896     \n",
            "_________________________________________________________________\n",
            "dropout_1 (Dropout)          (None, 128)               0         \n",
            "_________________________________________________________________\n",
            "dense_2 (Dense)              (None, 1)                 129       \n",
            "=================================================================\n",
            "Total params: 1,320,193\n",
            "Trainable params: 1,320,129\n",
            "Non-trainable params: 64\n",
            "_________________________________________________________________\n"
          ],
          "name": "stdout"
        }
      ]
    },
    {
      "cell_type": "code",
…
